demand_model.pth (torch, 395966 bytes, 9 tensors)

fc1.weight f4 [256, 213]
00000000: 4ab4 4d3d a161 523d 6679 34bd eb00 7b3d
00000010: 1020 cabc bd45 5fbd af52 253d bac9 2cbb
00000020: ddf4 263d 2c93 023c 0d22 f93b 607b 143d
00000030: 34fe f53c 80cb 14bd 1846 8dbc 0706 89bd
00000040: cb82 493c 5aa7 a43c 000b 213d 4f70 b13b
00000050: 1a09 513c 5f77 49bd 9754 4a3d 26e9 4a3d
00000060: 5923 adbc 9471 4bbd 16e1 093b ac58 d73c
00000070: 6a0e 02bc 57df 85bd b7b7 3d3c f6df a3bc
00000080: 0829 33bd dfce 393d f15d 2fbd 1863 86bd
00000090: aab7 f138 0da8 36bc 6cee 81bd d32e 9ebc
000000a0: cb8c 24bd aebe 6a3d 0111 ebbc 9176 82bd
000000b0: 7506 d43c 644d 81bd 0d3d 0c3d 061f 853b
000000c0: 48a2 53bb c342 3fbc 5480 59bd c3db 86bc
000000d0: dcc6 f1bc 5e61 debc 9444 a3bb 3ded 59bd
000000e0: 0a28 c4bc 0747 593d 14b5 7fbd feb1 273d
000000f0: 6392 43bd a1f4 afbc 27ad d13c 1f6e 4ebd
00000100: ff05 5c3d 7b32 10bd 09f0 45bc 7bef 0bbd
00000110: 70dd 873d 5d44 73bd 4b37 bc3a f803 84bd
00000120: 8dd2 eabc 85a8 723d a066 f13c ee39 793d
00000130: 51e9 383d 5f3f 19bc 40e5 4cbb c26d bfbc
00000140: 60af 78bd 7d63 f5bc dee0 a2bc 1c7e aabb
00000150: 15f5 a73c 307a 6cbd 3c37 0bbc 303f 183d
00000160: bec3 4bbd 943c eebc 74a1 01bd 3e28 51bd
00000170: 885c febc 9f72 19bd 2ea6 4a3d 21ca 14bd
00000180: c769 cc39 97d5 59bc 561e 463d a8c0 013d
00000190: bef8 e8ba 470e 15bd 037f 5a3d 11ba 6d3d
000001a0: 12c9 803c 9acc 3e3c b2cb 51bd 6db1 8a3d
000001b0: 6081 7dbc e7a0 373d 9228 babc 8732 a9bc
000001c0: 7a09 373d 0e32 633d 7e8e cdba 518c 1ebc
000001d0: a0ac 2cbd 20e9 2abd 4bd4 4a3d aa52 c53c
000001e0: f723 343d 1d2a 54bd 5202 4d3d b5a4 1b3d
000001f0: 94c4 77bd dbbc 5c3d 4838 803d f556 1bbd
00000200: 866a 45bc 1ea8 43bb d7bb 8c3b 1c25 8bbb
00000210: eaf2 1b3d 49cb 253d 7ce0 f13c bcbe 6f3d
00000220: b7b0 7c3d 41c0 1bbd f4bd 213b 5c84 75bd
00000230: 73e9 87bd dc01 10bc ffc8 dd3c 233a f1ba
00000240: b59a e03b 10d9 18bd 544c c13b 3656 883b
00000250: 5914 1b3c 9ada c03c d4c7 80bd 5d59 97bc
00000260: d578 e7bb 8ac8 09bd 36eb f2bc 5afb 4d3d
00000270: 8b3e 7b3d 186e 1abd 68ff 76bc bb78 bdbc
00000280: f8fa a6bc ff56 133d bfae b03c d3f5 11bd
00000290: e52c f0bc e53c 083d 7cec 4e3d fd3e 1cbd
000002a0: dd3a 873d 8ccc aa3c b464 703d 801a 803b
000002b0: 4e75 3fbd 2ba9 30bd 2998 60bd f079 e5bc
000002c0: 8964 00bc 2c41 713d 8656 633c 2a30 f4bb
000002d0: 89a3 cfbc 032c 7abd b45e 40bb 1a32 7cbd
000002e0: 050e e0bc fd70 afbc beab 86bd 9d6c 873d
000002f0: cf23 a33c 95b9 09bd eda0 a3bc 0de2 7a3d
00000300: 99e1 093c 8c3b 81bc b861 15bc 6d3b 5fbd
00000310: c890 0ebd 5069 c63a 6fb6 49bd 9b6b 8d3c
00000320: 0f0b 023c b142 5f3d f846 d53c 04b5 e4bc
00000330: de14 13bc 6613 44bd ef6f 6c3d 748c 223d
00000340: 4db9 1c3d 2e2b 293c fd5f 213d 1049 813d
00000350: 27ae 9aba 9132 8abe bc1a 2f3e d24c 7d3c
00000360: f3c4 653d bfef d93c ec31 96bb b1f5 4c3d
00000370: 0ea1 5ebc 300a 61bd c4c0 593d da9d ed3c
00000380: 5eea a23c 802b 503d c524 6d3c 600d 56bd
00000390: 3440 5cbd 5731 c3bb e8f9 9bbb 8a25 533d
000003a0: 132f de3c 9944 363c 4571 1e3b 5472 2b3d
000003b0: d530 23bd bed0 b43c a718 4e3b a4db e6bc
000003c0: 433d a2bd 82c0 92bd 5d59 003d 45e0 2bbd
000003d0: e8bc 11bc be6c 5f39 3de5 35bd 7916 0b3d
000003e0: a37f acbc 26ec b0bc 597d 74bd 178c 31bd
000003f0: b60c 3abd 4943 5f3c 40c0 8cbc 563c 23bd
0.050220765 0.051362637 -0.044061087 0.061280172 -0.024673492 -0.054509867 0.040362056 -0.0026365356
0.040760864 0.007969659 0.007602936 0.036250472 0.03002844 -0.036326885 -0.017245337 -0.06690603
0.01229925 0.02009933 0.03931713 0.0054149996 0.012758518 -0.049186107 0.049397077 0.049538754
-0.02113502 -0.049668863 0.0021038703 0.0262874 -0.007938007 -0.06536739 0.011579446 -0.020004254
-0.043740302 0.045363303 -0.0428142 -0.065618694 0.000115259856 -0.011148465 -0.063443035 -0.019309437
-0.040173333 0.057310753 -0.028694632 -0.06370271 0.025881985 -0.06313589 0.03423791 0.004062536
-0.0032292772 -0.011673632 -0.0531009 -0.016462212 -0.029513769 -0.027146038 -0.0049825404 -0.053204764
-0.023944873 0.053046253 -0.06242855 0.04094123 -0.047747027 -0.021478953 0.02559526 -0.05039799
0.053716656 -0.035204392 -0.012081155 -0.034163933 0.06634033 -0.05939137 0.001435974 -0.064460695
-0.028664852 0.059242744 0.02946788 0.06084626 0.045144383 -0.009353488 -0.0031264573 -0.023367766
-0.060714126 -0.029954666 -0.019882616 -0.0052030217 0.020502606 -0.057733715 -0.008497056 0.037169635
-0.04974722 -0.02908162 -0.031648114 -0.05106377 -0.031049982 -0.037462827 0.049474888 -0.036325578
0.00038988722 -0.013295553 0.048368774 0.031677872 -0.0017774326 -0.03639057 0.053343784 0.058038775
0.015720878 0.0116454605 -0.05121965 0.067721225 -0.01547274 0.044831183 -0.022724424 -0.020653976
0.044686772 0.055467658 -0.0015682725 -0.009677009 -0.042156816 -0.04172623 0.049518865 0.024087269
0.04397961 -0.051797975 0.05005104 0.037998874 -0.060490206 0.053891044 0.06260735 -0.037924726
-0.012049323 -0.0029854844 0.004294853 -0.004246367 0.038073458 0.04047707 0.029525988 0.058531508
0.061691966 -0.038025144 0.0024679871 -0.05994068 -0.06636324 -0.008789506 0.027073381 -0.0018404167
0.00685438 -0.037316382 0.0058989916 0.004160668 0.0094653005 0.023541737 -0.06288114 -0.018475229
-0.007063965 -0.033638515 -0.029653173 0.050288536 0.061338942 -0.03770265 -0.015075542 -0.023128858
-0.020383343 0.035971638 0.0215677 -0.035634827 -0.029318282 0.0332612 0.050518498 -0.038146008
0.06603024 0.020849489 0.058689788 0.003909409 -0.04674273 -0.04313008 -0.05483261 -0.028012246
-0.007836469 0.058900043 0.013875609 -0.0074520307 -0.025346534 -0.06107713 -0.0029353322 -0.061571218
-0.027350435 -0.021416182 -0.06575726 0.06612513 0.019914536 -0.03362425 -0.019974196 0.061250735
0.008415603 -0.015775464 -0.009117536 -0.054500032 -0.034806043 0.0015137587 -0.049246248 0.017263224
0.007937207 0.05450696 0.026034817 -0.027918346 -0.008977143 -0.047870062 0.057723936 0.039684728
0.038262654 0.010325236 0.039398182 0.06312764 -0.0011801169 -0.26991704 0.17100042 0.01546021
0.05609603 0.026603578 -0.004583588 0.050038997 -0.013588203 -0.054941356 0.05316235 0.029005934
0.019887146 0.050822735 0.014474099 -0.05225885 -0.053772166 -0.0059568095 -0.0047600158 0.051549472
0.027122056 0.011124753 0.00241764 0.04185708 -0.03984149 0.022072192 0.00314478 -0.028180905
-0.07921841 -0.07165624 0.031335223 -0.041961927 -0.008895136 0.00021307447 -0.04440807 0.03395698
-0.021056956 -0.02159698 -0.059689853 -0.04334649 -0.04542228 0.013626882 -0.017181516 -0.039852463

fc1.bias f4 [256]
00000000: f94e 843d e51c af3c 0ea9 133c 966e 0d3d
00000010: d0d6 c5ba e110 babb 0161 68bc 7206 983b
00000020: a7b2 6e3b 22e8 503d 012f d43c 362b a83c
00000030: 2618 bebc 9341 61bd 123a 97bd 9a22 57bd
00000040: b762 753c be67 0d3d 046c 353d 9e13 43bd
00000050: 08c1 f1bc 386a 203d 7810 93bc e410 493d
00000060: c44f 1fbd f627 3cbd d92d 7a3d ffce 163c
00000070: 868c 1fbd 1400 093d 76cf bdbc 0549 4fbd
00000080: 9d18 a9bc ccc7 293d 8a01 88bd af7b a73b
00000090: 89a8 77bc 4d73 1dbd cb12 47bc 483b 61bd
000000a0: 22b0 67bd cdc0 82bc 8268 7cbd b7b8 b9bb
000000b0: c07e 41bd 81fc ee3c ee20 e03c 67eb 193d
000000c0: f60b debc abe2 91bd de2d 6bbd 11f1 653d
000000d0: 5049 313b cb31 d43b a330 083d 103b 53bd
000000e0: 4992 86bd 3f2f 4a3d 15e8 89bd 890b cd3c
000000f0: 9ef1 0abc 04c1 703d 0d33 d1bc 754b 8d3c
00000100: a2ac 82bd ba4c 1cbd 7e21 c4bd 055a 1f3d
00000110: f5b8 fc3b 6362 11bd acb3 713d 307d 863c
00000120: e73d 61bd 42a8 f4bc e1d8 543c 11ac d03c
00000130: 5db8 f73b 5c26 723d cb14 b1bb 34de a9bc
00000140: 634a 4ebd 0042 7a3c ccd8 df39 6767 6fbd
00000150: 6bc5 09bd 0ad7 d3bc 6257 6dbd 3719 09bd
00000160: da07 7fbd bd95 93bd 3bc5 6dbd 1ab6 863d
00000170: 5297 1d3d 0693 22bd 5ce0 0fbd e836 edbc
00000180: f45b 95bd 66ea 3abe cd68 93bd deb5 fabc
00000190: e3d9 f93b c485 e83b fa86 debc 06e6 93bc
000001a0: 80dd 40bc f164 83bd 070b ccba 60ea 31bd
000001b0: 2df7 7fbd 47c1 503d d901 0b3d 1639 a8bc
000001c0: 4c46 ffbc d5f7 8ebc 478c 3fbc efbc bfbb
000001d0: 664e 533d 6d5d f6bc 70a6 15bc 35f8 6c3d
000001e0: f3a0 85bd 2600 963c bba6 433d 1ba3 d8bb
000001f0: a6ef 68bd 8247 60bd 2e18 2c3c 088a 25bd
00000200: 7f39 3e3c 8aeb db3b 29e2 01bd 32b7 973b
00000210: c82a 6fbc 6b1e e0bc 61df 2abd f465 fe3c
00000220: 3cdd 5b3b 105a 21bd 595c 76bd 550c b3bc
00000230: 5e37 47bd 49aa 18bd fbd9 563c 0c16 19b9
00000240: d79f 65bd c0d1 bbbc 7e3d 61bd f171 033b
00000250: daa5 2d3a 2cc9 23bd c87e 863c 86b2 683d
00000260: e7ce 4bbd 01d0 d53c 413a 143d e13a 74bd
00000270: 0a15 1dbd 835c fdba cbb9 69bd bef6 30bd
00000280: 4cef cd3c 4aa0 1c3d 8d77 80bb 4de5 5fbc
00000290: 12ba a03c f29e b3bc eb65 573d 1abb 7dbc
000002a0: 5d0c 49bd bb11 42bc 7b88 713d e1ee 4e3d
000002b0: ec34 c9bc 9b24 b3bc f910 14bd 4ec0 60bb
000002c0: 3eb0 cc3c 0529 b0bc f84f eb3c 3439 c43b
000002d0: 9147 0dbd 64f5 0d3d 44d6 51bd 251f 1d3d
000002e0: 7132 e83a 83f0 45bd 6dd8 94bc 3a6b eb3c
000002f0: 3c74 debc 41e9 113c dc5c 78bd fdaa 8c3c
00000300: f843 11bd 6538 a8bb ac13 a2bb 43c7 12bd
00000310: bced f5bc 1533 a63c 9081 153d 5e97 87bd
00000320: aa60 f8ba 7c01 dc3b 9747 0bbd 6397 6bbd
00000330: 11e2 0d3d de03 643d e4ed 47bd 612e e0bb
00000340: ec66 e1bc 5461 773c 9795 beba e4b5 863d
00000350: 1088 2dbb 11ad 343c 755d 69bd 958e c03c
00000360: 0016 753d 466c 453d 26d9 223d 3d76 60bd
00000370: 0076 483d 12a7 6cbc 870c a4bc a788 bdbc
00000380: 85f1 193d 4a3d 343d 79ca 2fbc 1515 3cbd
00000390: 8325 fe3c e0bb 75bd f378 7f3c 32c9 18bd
000003a0: 3c35 93bd fb95 d2bc 5168 7cbd 4ae7 2f3c
000003b0: b37c f43a 1ed2 853d d830 14bd df39 243d
000003c0: 5e45 bb3c 7694 b83c 31f1 3e3d 1ed4 fe3c
000003d0: 81d9 23bd 766e 303d fd46 c23c 01e7 17bd
000003e0: 9f2e fc3b 00d4 67bd fe31 4cbc aa0d 8bbc
000003f0: fa3a 243d f95a a4bb 3c91 6f3d 08f0 89bd
0.06460375 0.021376083 0.009012474 0.03452929 -0.0015093926 -0.0056782817 -0.014183284 0.00463944
0.0036422403 0.05100263 0.02590132 0.020528417 -0.023204874 -0.054994177 -0.07384123 -0.052523233
0.014977149 0.034522764 0.044292465 -0.04762613 -0.02951099 0.039163798 -0.017952189 0.049088374
-0.03889443 -0.045936547 0.06107888 0.009204625 -0.038952373 0.03344734 -0.023170214 -0.050606746
-0.02064162 0.041450307 -0.066409186 0.00511118 -0.0151158655 -0.038440038 -0.012150477 -0.054988176
-0.056564458 -0.015961075 -0.061623104 -0.0056677717 -0.04724002 0.029173138 0.027359452 0.037578013
-0.027105313 -0.071233116 -0.05741679 0.056138102 0.0027051754 0.0064756623 0.03324951 -0.05157
-0.065708704 0.049361464 -0.06733719 0.025029914 -0.008480458 0.058777824 -0.025537038 0.017247895
-0.06380583 -0.03815911 -0.09576701 0.03890421 0.0077124783 -0.03549422 0.05900924 0.016417116
-0.054990675 -0.029865388 0.012991161 0.025472673 0.0075598196 0.059118614 -0.00540409 -0.020735838
-0.05036391 0.015274525 0.000426954 -0.05844822 -0.033635538 -0.025859375 -0.057944663 -0.033471312
-0.062263347 -0.07206295 -0.05804942 0.06577702 0.03847439 -0.039690994 -0.035126075 -0.028956845
-0.07292929 -0.18253478 -0.071977235 -0.0306043 0.007624851 0.007096024 -0.027163971 -0.01805402
-0.01177156 -0.064157374 -0.0015567251 -0.043436408 -0.062491585 0.050965574 0.03393731 -0.020535033
-0.03116145 -0.01745216 -0.01169116 -0.00585138 0.05158844 -0.030073846 -0.00913392 0.057853896
-0.06524839 0.018310618 0.04776643 -0.0066112406 -0.05686917 -0.054755695 0.010503812 -0.04041484
0.011610388 0.006711428 -0.031709824 0.004629993 -0.014597602 -0.027358254 -0.041716937 0.031054474
0.0033548614 -0.03939253 -0.060146663 -0.021856466 -0.048636787 -0.03727177 0.013113494 -0.0001459943
-0.05606064 -0.022927165 -0.054990284 0.0020056928 0.000662414 -0.039986774 0.016417876 0.05681088
-0.049757864 0.02610016 0.036188368 -0.059626464 -0.038350143 -0.0019329939 -0.05706195 -0.04320406
0.02513852 0.0382388 -0.0039205016 -0.013665509 0.019619975 -0.021926377 0.05258743 -0.015486503
-0.049084056 -0.011845048 0.05896805 0.05052078 -0.024561368 -0.02186804 -0.036149 -0.003429431
0.024986383 -0.021503935 0.028724656 0.0059882645 -0.03449208 0.03465785 -0.05122973 0.03835978
0.0017715228 -0.048325073 -0.018169606 0.028737653 -0.027155034 0.00890571 -0.060635433 0.017171377
-0.03546521 -0.005133676 -0.0049461927 -0.035834562 -0.030020587 0.02028803 0.036500514 -0.06620668
-0.0018949707 0.006714044 -0.03400382 -0.05751742 0.03463942 0.05566775 -0.048810855 -0.0068414663
-0.027514897 0.015098888 -0.0014540431 0.06577662 -0.0026478805 0.01102759 -0.056973893 0.023505488
0.059835434 0.04819896 0.03975787 -0.05480026 0.04894066 -0.01444413 -0.020025505 -0.02313645
0.037583847 0.044003762 -0.010729426 -0.045918543 0.031023746 -0.059993625 0.015592801 -0.03730125
-0.07187888 -0.025706282 -0.06162292 0.010736296 0.0018652886 0.06534217 -0.036179394 0.040094253
0.022860225 0.02253173 0.046616737 0.031107005 -0.04000235 0.043074094 0.02371549 -0.037085537
0.0076959874 -0.056598663 -0.012463091 -0.016974289 0.040095307 -0.0050157276 0.058488116 -0.067352355

fc2.weight f4 [128, 256]
00000000: 00dc 3ab9 e5ef 7fbd 2033 eb3c 9fb5 4bba
00000010: 9f1e 77bc 4c84 383d e0de 993c 0c51 0a3d
00000020: 9b94 ed3c 2750 a03b 94fb 2abd 7231 2fbd
00000030: d0e5 ca3b 65de 96bc 4060 9abb 0050 4b3b
00000040: ea28 20bd 97e4 8f3c 1864 903c a256 48bd
00000050: 9a90 4e3d dcbb 69bd a205 7a3d a6ae 21bd
00000060: c819 303c 9c62 483d c6be 563d 3a3a 6bbd
00000070: c3a2 98bc cf50 a0bd 4e42 023d 489f c53c
00000080: a0b7 0dbb 6674 42bd be8c 1ebd 58b2 56bc
00000090: 0022 babc 808b c83c f8f1 733d cc47 64bd
000000a0: e034 b6bc 773a bb3c 3a68 a8bd f059 11bd
000000b0: cec0 a73c f69d aebd 28d3 45bd 0c4c 6b3d
000000c0: b885 7bbd 0a3f 1abd 8e95 43bd 88dc 06bc
000000d0: eee9 13bd 925e 2d3d 8cb3 553d af2a a4bb
000000e0: d45b b23c bb8c 6dbd b876 0a3c 2403 34bd
000000f0: 221d 6abd 0ab4 b6bd 443f fbbc 08e2 21bc
00000100: f0f3 4bbd 6c11 033d e029 8a3c 9eb2 653d
00000110: 443e 4cbd 988a fd3c 29d3 38bb 549f 93bc
00000120: b013 40bc 706b 25bc e04c 083b bc05 213d
00000130: 18a8 0bbc 381a 6dbd f437 93bc 6e3e adbd
00000140: d17f 98bd d034 d83b 02ec 52bd 10f9 2cbc
00000150: cb77 32bd f8b8 503d 48fc febc d2a5 0f3d
00000160: f466 25bd f07d a8bc cf0d d33c e237 7fbd
00000170: 8851 81bc 70e0 b1bb 0cde 48bd 6815 8abc
00000180: ac5a 803c 9ad6 173d 2c0b cfbc 3d22 3fbc
00000190: b8bf b33c aa85 f33c c061 4dbd 008c 003d
000001a0: 9488 13bd 0099 60bb ba5a 0cbb 2c15 88bd
000001b0: b846 1d3c 5043 dabc 52ee 0a3d 0831 11bd
000001c0: 2066 2cbd 6039 1c3c 40cb 69bb ac28 5f3d
000001d0: 80b8 72bc 5098 a4bc fccb 883c c0fd 1f3d
000001e0: 86b4 1bbd 30cf 8dbb 5069 e63c 98d3 83bc
000001f0: f056 64bd a00b 02bd 761d 1abd c299 06bd
00000200: e0f3 88bc aa4f 42bd 0c19 1abd 9833 a7bc
00000210: b471 ef3c 18a6 06bc ee42 0d3d 808d 393d
00000220: 2e35 333d 87a1 abbd 200e 583c cac6 7a3d
00000230: 08af 01bd baf0 99bd 94bc dabc e851 e2bc
00000240: a47e bbbd de0a 363d bd91 b73c b777 d43c
00000250: ecbe ba3c 9c48 9ebc 19a9 7dbd 43d6 b7bd
00000260: cd2a afbd 9493 3dbd 7485 71bd 9c15 803c
00000270: 48a4 573c 18d6 423d 20d2 0bbc ce21 1dbd
00000280: beb2 213c e081 383b 8836 d43c 9cea 683d
00000290: 5097 dd3c 80e6 2f3c eca4 963c 32f1 49bd
000002a0: a8b6 233c ce10 adbd 8677 5bbd 4036 17bb
000002b0: e9eb a9bd 6a0c 6bbd 90be f3bc 7667 68bd
000002c0: 8b4d 73bd b08b 383d 9718 6cbd c153 48bc
000002d0: 5e01 193d 4998 6fbd 1ce0 5c3d 3a26 523d
000002e0: e6b7 3ebd f980 883c fcea 033d 70c6 35bc
000002f0: a09e 363c e180 eb3b f823 3b3d 60dc 733c
00000300: 23c8 b23b 39b5 4dbd 3cda 953c 737e f53c
00000310: 3cf7 d03c 50d9 1e3d 1af6 63bd bcc4 60bd
00000320: 78d4 85bc 602f 19bb 1a9f 0abd d08f a4bc
00000330: ceb5 603d 8c76 3d3d 201c d0bb f461 b1bc
00000340: 3bcd b2bd e8f6 81bc 909e 7d3c 96fe febc
00000350: f047 8f3b 5457 6b3d 2073 6b3d 0cee 0e3d
00000360: 7014 30bc 30fa 943c 9842 7b3c aca3 87bc
00000370: d9f5 7b3a ae88 7d3d 2236 383d 8e55 d8bc
00000380: b0a9 95bc 8cd6 4abd e4d1 e83c 8663 02bd
00000390: a4f1 333d 2016 b0bc 1027 1dbd 020e 1bbd
000003a0: 8c2d bc3c 30b4 d4bb 50ef cd3b 603e 27bd
000003b0: 2c96 16bd 1e44 c43c e478 e33c 0525 d83c
000003c0: fc9d d13c 4c1e 52bd 1053 233d 9ca5 7e3b
000003d0: aafb 2bbd b801 5abd 10f1 553d 28fb 67bd
000003e0: eddc bd3c b1ab b1bd b0d4 d53b 4d58 51bd
000003f0: 54be a1bc e6e7 113d ee7c 76bd dcbd 2f3d
-0.00017820299 -0.06248464 0.028710902 -0.0007770899 -0.015082984 0.045048043 0.018783033 0.0337687
0.029001525 0.0048923674 -0.04174383 -0.042771764 0.0061919466 -0.018416593 -0.004711181 0.0031023026
-0.03910152 0.017565055 0.017625853 -0.048910744 0.05043087 -0.057063922 0.061040528 -0.0394732
0.010748334 0.048922166 0.05242803 -0.057428576 -0.018632298 -0.07827913 0.031801514 0.024123803
-0.0021624342 -0.047474287 -0.03870844 -0.013104044 -0.02272129 0.024480581 0.05955693 -0.055732533
-0.02224201 0.022855027 -0.08223005 -0.03548616 0.020477679 -0.085262224 -0.048297077 0.05744557
-0.06140682 -0.037657775 -0.04775005 -0.00823129 -0.036111765 0.042326517 0.052173182 -0.005009971
0.021772303 -0.05799554 0.008451156 -0.043948308 -0.05715669 -0.089210585 -0.030669816 -0.00988055
-0.049793184 0.031999037 0.01686567 0.056078546 -0.04986407 0.030949876 -0.0028202033 -0.01802031
-0.011723444 -0.010096416 0.0020797774 0.03931211 -0.008523963 -0.057886332 -0.017971016 -0.08459173
-0.07446254 0.0065980926 -0.051494606 -0.010557428 -0.043571275 0.05095765 -0.031126156 0.035070248
-0.040381387 -0.020567864 0.02576342 -0.062309153 -0.015785947 -0.0054283664 -0.049039885 -0.01685591
0.015668236 0.037069894 -0.025273882 -0.011665878 0.021942005 0.029726822 -0.05014205 0.031383514
-0.036018923 -0.0034270883 -0.0021416382 -0.06644663 0.00959938 -0.026643425 0.033918686 -0.03544715
-0.04208958 0.009535164 -0.0035674125 0.054482147 -0.014814496 -0.02009216 0.01669883 0.039060354
-0.038013957 -0.004327677 0.028126389 -0.016092107 -0.055746973 -0.031749368 -0.037625752 -0.03286148
-0.016717851 -0.047439255 -0.037621543 -0.020410344 0.029229023 -0.008218311 0.034487657 0.04530096
0.043751888 -0.08380418 0.013186961 0.061224736 -0.031661063 -0.07516618 -0.02670125 -0.027626947
-0.09155014 0.044443958 0.02240836 0.02593599 0.022796117 -0.019321732 -0.061928842 -0.08976414
-0.085530855 -0.04628332 -0.05896516 0.015635304 0.013161726 0.047567457 -0.008533984 -0.038362317
0.009869276 0.0028153583 0.025904909 0.056864366 0.02704969 0.010736108 0.018389188 -0.049302287
0.009992279 -0.08450471 -0.053580783 -0.0023073107 -0.082969494 -0.057384886 -0.029753953 -0.056739293
-0.059400123 0.04505509 -0.05764064 -0.012227 0.03735482 -0.05849484 0.053924665 0.051305987
-0.046562098 0.016663061 0.03220652 -0.0110946745 0.011146218 0.0071869944 0.0456886 0.014884084
0.005455987 -0.050221656 0.018292539 0.029967522 0.025508516 0.038781464 -0.055654623 -0.05487512
-0.016336665 -0.0023374185 -0.033843137 -0.020088106 0.054860882 0.046255633 -0.006351009 -0.021653153
-0.08730551 -0.015864804 0.015479699 -0.031127255 0.0043725893 0.05745633 0.05748284 0.034894988
-0.01074706 0.018185705 0.015335701 -0.016557537 0.00096115243 0.061897926 0.0449735 -0.026407983
-0.01826939 -0.049521014 0.028420396 -0.031833194 0.04393162 -0.021494925 -0.03836733 -0.037855156
0.022970937 -0.0064912066 0.006284632 -0.04083097 -0.03676431 0.023958262 0.027767606 0.02638484
0.025588028 -0.051298425 0.039874136 0.0038856035 -0.041988052 -0.053224295 0.05223185 -0.056636006
0.023176635 -0.08675326 0.0065255985 -0.0511096 -0.019744076 0.035621546 -0.060177736 0.042905673

fc2.bias f4 [128]
00000000: a057 dc3c 5cae a93c 5a33 763d a69e 77bd
00000010: 4996 ad3a 3f83 b3bd 4014 9bbc 202a 97bb
00000020: 1235 04bd 5998 9bbd 227c 4f3d b5d0 19bd
00000030: 4263 ccbc 5080 093a a09b 8c3d 09c4 ba3b
00000040: 2873 73bd 9c54 093d 90d2 103d b80f 0fbb
00000050: ee8f 2fbd 101f 2c3c 6eb3 52bc d35a 383d
00000060: 909a 003c 7716 513c 6fe5 15bc 0894 5abb
00000070: 17b0 4d3c 877e 113c bedf 34bc 8e17 6bbd
00000080: 3e60 583d b6ea 9e3b 4182 41bc 2516 12bd
00000090: 747f 45bd 17d4 44bd 8e15 08bb c4df cbbc
000000a0: ab1c 88bc aecc 51bd d6d2 27bd 4719 883c
000000b0: 8737 1abd d3ac 093d e4ab c83c 7eb9 613d
000000c0: 3066 ee3c fc4a 0cbc e9b1 0a3d ecb5 2dbd
000000d0: b948 08bd 9cb8 0e3d de2a 9e3c 4de5 0d3d
000000e0: bd95 9d3a a254 a83c 9ac3 45bc 24f9 1d3d
000000f0: 8eac a53c f837 56bd ac30 40bd c0f8 e23c
00000100: 8aa9 6b3c c5f4 bdbc cb20 01bd ab0e dbba
00000110: 4059 063d 71ad cb3a 30e2 f93c fb6a 683c
00000120: baa5 5d3d ba0e 13bd 2cf9 a33c c483 aa3c
00000130: 9653 20bc 126e 2dbd c47e 04bd 2b98 cc3c
00000140: 22dc 86bd d387 8abc 6901 483d a2b5 24bd
00000150: b0b6 a03b bcea cebc 8dcc ccbc 8ddd dd3c
00000160: 6a71 75bd fa31 4abc 2e6b 7e3c 12f7 5a3d
00000170: 601c 6abd 528d 783c 6880 b23c 5d4c 61bd
00000180: d650 2c3d b00a d73c 5163 48bd cefe bcbc
00000190: 74a3 c93b 8090 64bd fbb4 053b 70be 2ebc
000001a0: 1b03 e73c 40fd df3c 032c 2d3d b6e5 c8bc
000001b0: 8386 1bbd 0764 a63c da70 dcbc 6d5d 39bc
000001c0: baf0 51bd af6c b43c f571 11bd 7865 9b3c
000001d0: a444 2b3d d199 34bd 5e6d 4e3d 72bd 823c
000001e0: 69df a8bc f8a3 723b e027 a9bd ac3d fd3c
000001f0: 9ee2 aebb 7c6f 273d ab33 e9bb e253 05bd
0.026897252 0.020713024 0.060107566 -0.060454033 0.0013243641 -0.087652676 -0.018930554 -0.004613176
-0.032277174 -0.075974174 0.05065549 -0.037552554 -0.024949674 0.00052452553 0.068656206 0.0056996387
-0.059435993 0.033527955 0.035357058 -0.0021829437 -0.04286187 0.010505453 -0.012860162 0.04500849
0.007849351 0.012761704 -0.0091489395 -0.0033352394 0.01255419 0.008880264 -0.011039672 -0.05739551
0.05282616 0.004849757 -0.01181084 -0.03566565 -0.048217252 -0.048053827 -0.00207648 -0.024886973
-0.016615232 -0.05122059 -0.040972553 0.016613616 -0.03765061 0.033612084 0.024496026 0.05510854
0.029101461 -0.0085628 0.033861075 -0.042409822 -0.03327248 0.034844026 0.01930755 0.034642506
0.0012022775 0.020548169 -0.012070561 0.038567677 0.020223882 -0.05229947 -0.046921417 0.027706504
0.014383683 -0.023188004 -0.031525414 -0.0016712745 0.03279996 0.001553936 0.030503362 0.014185662
0.054113127 -0.035902716 0.020016275 0.020814784 -0.009785553 -0.0423413 -0.032347456 0.024974903
-0.06584956 -0.01691047 0.04882947 -0.04021228 0.0049045905 -0.025258414 -0.024999881 0.027083183
-0.059922613 -0.012341017 0.015528483 0.05345828 -0.057155967 0.015170412 0.021789744 -0.055004466
0.04206928 0.026250213 -0.04892284 -0.02307072 0.0061535183 -0.05580187 0.0020402062 -0.010665521
0.028199723 0.027342439 0.0422783 -0.024523597 -0.037970077 0.020311369 -0.02690928 -0.011313778
-0.051254965 0.02202448 -0.03550907 0.018969283 0.041813508 -0.044092003 0.05039727 0.015959475
-0.020614343 0.0037024003 -0.08259559 0.030913197 -0.0053370735 0.040877804 -0.007116755 -0.0325507

fc3.weight f4 [64, 128]
00000000: dbc0 b73c 596b 3abd a8bd 07bc 9c12 d3bd
00000010: 7aeb c0bc 0891 bebd 8e0a 713c 3a92 37bc
00000020: cce0 17bd f970 8ebc 90b6 5a3d cb28 d13c
00000030: 6bf3 42bd 2b80 f3bc 7059 3fbd 387b cfbc
00000040: c8b7 393d 39b8 87bb 40a0 23bd 2532 9ebd
00000050: 47d0 6a3d 894d 8ebd 0a75 063c 3def 58bd
00000060: 6455 643d b4af 68bd 9573 3e3c 1f20 2c3d
00000070: 9609 983d 4e7b c03d 78ca 113c bc9a 073d
00000080: c32f 673c c2e9 023d afab 943d 9a2a c63d
00000090: e56e 46bd 7d70 573d db67 a73d 9f97 123d
000000a0: d553 67bc 7729 1c3d d0cf c9bd 8869 ae3c
000000b0: 6bb6 6e3c 4385 c53b 4191 533d 3d07 973d
000000c0: e1e5 333d 884e b2bd 8722 203c 36a0 7f3d
000000d0: e7ec 3f3d 6a76 2b39 739f f13d 6345 923d
000000e0: 7743 45bc 40f0 51bd c6f1 743d 08a9 88bb
000000f0: 364c 8b3d 5246 053d ff6f 3a3d 84b6 0e3d
00000100: 5eb5 5abd fcdf 1a3d 0141 9cbc 920c 43bd
00000110: eb8a 2f3d 7852 a83d d798 9f3d cc3d 08bd
00000120: e4cc 7abc 1561 1f3d d709 a2bd f5f4 20bd
00000130: 6149 04bd dab6 a63c f093 1e3d 6998 7abd
00000140: ea7c ab3d 6395 c33c 577b 723d 3e0d 89bd
00000150: 32d2 6e3d d3b8 e5bc 35aa 4fbd 43ad a43c
00000160: 4174 21bd 077e 2bbd 4d05 a83d 3cfa 603c
00000170: 7bb5 90bc 204a 2abd fc12 38bd fe03 89bd
00000180: ee0b 15bd eb80 be3d 1e2b 003c fd45 48bd
00000190: a42e 323d 15b5 553d 7f36 953c ca8a d73c
000001a0: a629 183d 2a55 2dbd d344 8bbd fca6 6b3d
000001b0: 0854 8e3d d479 6ebd f6b9 d7bc 44ee 04bd
000001c0: 6d00 e6ba 28c4 6f3d 0d50 a83d ecb3 27bd
000001d0: e823 353d 30ac 4d3d f697 d6bc c5e0 33bd
000001e0: 60b8 d3bc d0a2 223d 1779 1ebd 39f3 b33c
000001f0: f998 fcbc f954 cf3c daad a33d de04 1f3d
00000200: 12f4 7b3d 5ac1 53bd 1a70 a7bd a300 67bc
00000210: 021d b53c f942 27bd ce83 c2bc c3c7 8a3c
00000220: 3007 89bd 844e c03b 9a44 a63b e8dc a4bd
00000230: 8573 27bd f562 57bd 842f 37bb 5199 7dbc
00000240: eb02 81bc 100a ad3d f555 913c 6c5a 4cbd
00000250: d0a4 503c 55f8 38bd dc74 1bbd 46c6 8cbc
00000260: 789d e0bb 1450 8b3d 8960 32bd a470 7cbb
00000270: 49d2 98bc b7a5 363d fb71 9cbd 16ac 0abd
00000280: 6751 0bbd 3e95 adbb a583 a6bd 0794 853d
00000290: 9ceb 4cbb 49a4 923d 665f 09bd d985 01bd
000002a0: 7984 9bbd 4eb8 f5bb 402b 643d 4db3 323d
000002b0: feab 1c3d 7ee6 9fbd c474 7c3b 1a81 333d
000002c0: b42c 70bc dea1 a93d 9232 69bd da85 7a3d
000002d0: 2314 183d dc3b 893d a26d 44bc f3a1 a3bd
000002e0: cdf1 7f3d 39ac 9e3b 07bf 7f3d 0681 2e3d
000002f0: 5529 0bbd c0ba d93a 7a9c 6a3d ee91 b33d
00000300: 3a9d 3139 8da3 083b 1219 b8bd e1fd fd3b
00000310: 0cd4 a93d 3b8b 2e3d 04ea 00bd 4e36 aa3c
00000320: 033b 353d b2f2 8f3d 5709 aa3d fa7b 7aba
00000330: 4410 fc3b 3656 38bb 743d 4cbd c694 6b3d
00000340: 3084 9f3d 858c 7e3d 1ba5 903d 5321 903c
00000350: cded 5c3d 874f a2bd bfba 453d f86a 80bd
00000360: d457 71bd adc5 513d 3af6 45bd 2e0a 763c
00000370: f236 95bc 0eda 5fbb 24ba 4ebd 0fe5 61bc
00000380: f6f9 913c 2be1 83bd 834e c2bd 88c3 88bc
00000390: 0619 183c 7641 1e3d a261 a63d 0f16 a83d
000003a0: 99ae 7b3c 38e6 673d 46d1 233c c367 b23d
000003b0: 03a6 9bbd 097e febc ebf6 803c 0e63 88bd
000003c0: 0a07 95bc 412f 9c3d d62c f53c 92b5 8cbd
000003d0: f4b8 053d c17b 9cbd 4081 6e3d 5f40 2ebd
000003e0: 3881 6b3d 151a 4b3d a8d2 323d bf58 73bd
000003f0: e639 bbba 89b9 ae3c 4a64 fabc a093 513d
0.022430828 -0.04551253 -0.008284964 -0.10306284 -0.023549784 -0.09305006 0.014711989 -0.011204297
-0.037079617 -0.017387854 0.05339676 0.025532147 -0.047595423 -0.029724201 -0.046716154 -0.02532731
0.045341283 -0.004141834 -0.03994775 -0.07724408 0.057327535 -0.069483824 0.008206615 -0.05296253
0.055745497 -0.05680819 0.011624237 0.04202282 0.07423703 0.093985185 0.00889837 0.03310655
0.014110508 0.03196121 0.072593085 0.09676094 -0.0484456 0.05259751 0.08174106 0.03578913
-0.014119108 0.03812548 -0.0985409 0.021290556 0.014569859 0.006027849 0.051652197 0.073744275
0.0439204 -0.08706385 0.009773857 0.06240865 0.046856787 0.00016351943 0.11797991 0.07142141
-0.012040011 -0.05125451 0.059800886 -0.0041705407 0.068016455 0.032537766 0.045516964 0.03484203
-0.05339562 0.037811264 -0.019073965 -0.04761941 0.042857092 0.08218855 0.07792824 -0.03326206
-0.015307639 0.038910944 -0.07912033 -0.03929611 -0.032296542 0.020350862 0.038715303 -0.061180506
0.08373435 0.023874944 0.059199657 -0.06691979 0.058305927 -0.028042233 -0.05069943 0.020102149
-0.03941751 -0.041868236 0.08204136 0.0137315355 -0.017664662 -0.041574597 -0.04493998 -0.066902146
-0.03638833 0.09301933 0.00782278 -0.04889487 0.04350151 0.052174646 0.018214462 0.026311297
0.037149094 -0.042317547 -0.068002366 0.057532296 0.069496214 -0.058221653 -0.02633379 -0.03245379
-0.0017547734 0.05853668 0.082183935 -0.04094307 0.044223696 0.05021304 -0.026195507 -0.04391553
-0.025844753 0.03970605 -0.0386897 0.021966564 -0.030834662 0.025309073 0.07992144 0.038823
0.06151206 -0.051698066 -0.081756786 -0.014099273 0.022108559 -0.040835354 -0.02374449 0.016940957
-0.06690824 0.005868735 0.005074096 -0.08049947 -0.040881652 -0.052584607 -0.0027951906 -0.015478448
-0.015748462 0.08449185 0.017741183 -0.04989092 0.012734607 -0.045158703 -0.037953243 -0.017184388
-0.0068547092 0.06802383 -0.043549094 -0.0038519287 -0.01865496 0.04459163 -0.076389275 -0.03385552
-0.03401318 -0.005297332 -0.08130578 0.065223746 -0.0031268364 0.07160241 -0.033538245 -0.031621788
-0.075936265 -0.0074987775 0.05570531 0.043628026 0.038249962 -0.07807635 0.0038521746 0.043824293
-0.014659096 0.08282827 -0.056932993 0.061162807 0.03712858 0.067008704 -0.011989029 -0.07989874
0.06248646 0.004842308 0.062438037 0.042603515 -0.033974964 0.0016611442 0.057278134 0.08768068
0.00016938607 0.0020849437 -0.08989157 0.007751212 0.08292398 0.04261325 -0.031473175 0.020777848
0.04424573 0.07028712 0.08302563 -0.0009555217 0.0076923687 -0.0028127558 -0.049863294 0.05751493
0.07788885 0.06214573 0.07062741 0.017594015 0.053937722 -0.07925325 0.048273798 -0.06270403
-0.05892165 0.05121391 -0.048330523 0.015017075 -0.018214677 -0.003415707 -0.050470486 -0.013787522
0.017819386 -0.06439432 -0.09487631 -0.016694799 0.00928331 0.038636647 0.08124091 0.08207332
0.015361452 0.056616038 0.009998625 0.08711197 -0.076000236 -0.031065958 0.01574274 -0.06659518
-0.018191833 0.076262005 0.029928606 -0.06870569 0.03264709 -0.07640792 0.05822873 -0.042541858
0.05749628 0.04958542 0.04365793 -0.059410807 -0.0014284223 0.021328704 -0.0305654 0.051166177

fc3.bias f4 [64]
00000000: 1a21 bc3d 07ac 9d3d 4afe 273d 3df1 ce3c
00000010: 11e8 783d 28f7 29bc 8d90 e23d f743 713d
00000020: 434c ac3c dc23 a73d 6c1e 0ebc 15b1 2bbb
00000030: a0d0 0b3d 5c68 663d 1820 ad3d d1c7 80bd
00000040: 8cf4 f3bb 2c7e 75bd d8aa be3c a0ce cbbc
00000050: 8e98 3cbd 32bb 023c 177f 833d c374 493d
00000060: 0f09 cb3c 6fb6 62bc 6e6c 0ebb cf98 efbb
00000070: dc83 b63c 37c5 3abd 4879 513c 9404 c53c
00000080: 1cb3 c93c c38e 9ebd af8e ba3c bbe8 2b3d
00000090: db30 ca3a 749b 9d3d d003 8cbd 096c 983d
000000a0: 5198 803d f238 73bd 4d15 3f3d a5b3 33bd
000000b0: 99b2 963d caaa 6abb ba07 a33c 5c8d 9a3d
000000c0: 83e5 b23d 6634 96bc bf1f f5bb 8245 9bbc
000000d0: 181b 3d3d 0bec 38bd 2697 f73c a9cf 83bd
000000e0: 28bf c9bd d313 17bc d635 b4bd 53a1 243d
000000f0: deac ccbb e5cb 7bbc 69d3 cdbb 6f19 a1bd
0.09186001 0.07698827 0.041013993 0.025261516 0.06076819 -0.010373868 0.11062727 0.058902707
0.021032458 0.081611365 -0.008674245 -0.0026198078 0.034134507 0.05625187 0.08453387 -0.06288112
-0.0074449237 -0.05993478 0.023274824 -0.0248788 -0.046043925 0.007979201 0.06420725 0.04918362
0.024784593 -0.013837441 -0.002173211 -0.0073119174 0.022279672 -0.045598235 0.012785263 0.024050035
0.024621539 -0.077420734 0.022773115 0.041969996 0.0015425937 0.07695666 -0.06836665 0.07442481
0.06279052 -0.05938048 0.046651173 -0.043872494 0.073582835 -0.0035807365 0.019901145 0.075464934
0.08735182 -0.018335532 -0.007480591 -0.018954042 0.046168417 -0.045146983 0.03022344 -0.064360924
-0.09850913 -0.009221035 -0.08799331 0.040192913 -0.0062461933 -0.015368436 -0.0062813056 -0.07866179

fc4.weight f4 [32, 64]
00000000: b8a2 abbd e0f2 183d a45a 853d 30e6 76bd
00000010: 24de 573d 20fc 8b3c 4cfd cc3d 007e febb
00000020: 98a9 8fbc d0d3 a5bd 9cf9 e33d 8828 db3c
00000030: ba18 99bd 804c f73c bede 893d f06c ffbd
00000040: 1c3f 323d c88c a83c d085 dcbc 10c3 77bc
00000050: d02f 103d 86e0 9cbd 745b 473d 7077 06bc
00000060: c0c9 cabd a033 06bd 70e2 693d 80a0 1fbd
00000070: d286 c63d 2296 e3bd 5446 b5bd 8c2a 1d3d
00000080: 521a f1bd dce3 64bd 8e51 8bbd f058 08bc
00000090: 00cf a3bc 72e6 93bd 2094 07bc a8ca a03d
000000a0: 3255 853d aed2 813d 6c31 cfbd 10ae 0ebc
000000b0: b067 bc3c 189b bf3d 5477 ebbd 0888 b23c
000000c0: 7408 853d 1098 203d f27a d63d c439 dcbd
000000d0: 2058 943c 6074 df3d 809d 803c 68c0 973c
000000e0: 3e1d c6bd 0c0b 82bd 24d2 3a3d e047 c1bd
000000f0: 7c8d 0a3d d235 d1bd 589e 07bd e82d 84bc
00000100: b038 5abd 9686 b53d 9234 f8bd 906e eabc
00000110: b096 a2bd 52b9 e5bd 88a8 d53d 3e94 c23d
00000120: 44b2 4dbd d8da d73d e4fa 353d d071 4abc
00000130: 7494 4fbd 982d bebd 844b 8bbd 805f 36bd
00000140: 403a f63d b4c5 2dbd 8898 c8bd ec97 e1bd
00000150: f8b8 e63c e442 cf3d 80d0 313d 404b 4fbc
00000160: 30b8 b33c 8057 7fbb 4456 103d 588e d3bc
00000170: d85d aebd f8de b1bd 3a6c fdbd 50d2 18bc
00000180: c0e8 9abd 8235 d6bd 54c2 99bd 5c03 633d
00000190: 34a8 90bd 18fb babd 7cf3 3b3d 282b 0e3d
000001a0: 443c ebbd fe77 f33d a0e9 f53c a87d 8d3d
000001b0: 944d 053d ec3e 553d 3a90 e83d 40c4 a53b
000001c0: 4001 143b 00bb 43bb 0025 b0bc 22a4 e5bd
000001d0: c8ea b43d c8b7 ca3d d099 00bd c442 4dbd
000001e0: 28a4 14bd 46f9 883d f4d5 e8bd 5a88 f6bd
000001f0: a612 e93d 1a7b febd dc91 a7bd 003b cabd
00000200: 2ae0 c3bd 1868 cdbd 72ee bdbd 14be 873d
00000210: b89e b1bc 20a0 a2bb 60f8 64bd 743d 09bd
00000220: 58b5 fcbd 1c8a e83d 407b bebb aae1 c3bd
00000230: 8003 c13c 285b b23c f847 633d c055 c93c
00000240: 20b2 cf3b 1e08 d23d d08d 58bd 803b fc3b
00000250: f029 66bc 60ea ccbb d843 db3c 6044 183c
00000260: fad2 83bd 10be 06bc 80b6 a5bd 6c80 ed3d
00000270: 8e6f cc3d 4813 a13d f0c4 cf3d 5cbc 3b3d
00000280: 28ef 02bd 2cdf dc3d 3a70 cb3d a0e2 a93b
00000290: 9a5a e7bd 5064 cebd 2026 afbd ee74 94bd
000002a0: 98d0 aa3d 14df b6bd 1eb8 b2bd 249a 0fbd
000002b0: f89f c5bd 80a9 a8bb 0829 a3bd 3c12 033d
000002c0: 2a2e c6bd 3c71 bd3d 06ff 99bd 900d 85bc
000002d0: 48dd bebd 28f7 a73d 0ef5 efbd c8ed 6e3d
000002e0: 3828 a73d d038 6abc 8006 593d 00a8 76b9
000002f0: 94c3 e93d a2b7 f3bd fc5b 9bbd d020 873c
00000300: f5ad 213d 82ac 6abb 4ce1 083e 890d c63d
00000310: 2f37 6e3d f2f6 023b c46b d4bd f88d f43b
00000320: 28e1 91bd cde9 b63a cf22 6e3d 79ab bebd
00000330: f79e 2a3d c12f 52bc a400 e7bd bc5f 9d3b
00000340: b579 f2bc 4a0c dbbc 3f11 b0bd b362 a1bd
00000350: d638 3c3d 8b5e dc3d 7acb e83d c895 193a
00000360: dca9 c7bd 4a65 513c 87dd d53d 8bbd afbb
00000370: 3a36 e13d c9f2 ab3c 88e4 b53d 8610 ef3d
00000380: 839b a2bd 7e41 b9bd 7ea6 b73d 4bf7 9bbb
00000390: f689 1dbb 7c47 55bd 7f5e bf3d d08e 9fbd
000003a0: 64a5 89bc 0e03 7ebd 045e 06bc ccda 4dbd
000003b0: c5fc 023d ba9e cebd 8c51 f43d c073 cb3d
000003c0: 9248 e9bd c5a8 0ebc cff6 1ebb a61e a4bd
000003d0: 20e7 823d a4e3 253d dfde b33d 300e ca3c
000003e0: ad32 783d 998b 723c 8fed c33d 4936 403d
000003f0: 6c5e aabd 2945 c43d 5cd3 7cbd ee68 dbbd
-0.083806455 0.037341 0.06511429 -0.060278118 0.052702084 0.017087996 0.1000925 -0.007766485
-0.017536923 -0.08097041 0.111315936 0.026752725 -0.07475419 0.030187845 0.06731938 -0.1247195
0.043517217 0.020574942 -0.026919276 -0.01512219 0.035201848 -0.07660012 0.0486712 -0.008207187
-0.09901762 -0.032764077 0.057100713 -0.038971424 0.09693684 -0.1111262 -0.08851305 0.038370654
-0.11772598 -0.055881366 -0.06802665 -0.008321986 -0.019996166 -0.07221688 -0.008275062 0.078511536
0.0651039 0.06339012 -0.10116848 -0.008708492 0.02299866 0.09355754 -0.114973694 0.02179338
0.06495753 0.039207518 0.10472669 -0.107532054 0.018108428 0.10910869 0.015700102 0.018524364
-0.09673546 -0.06349763 0.045610562 -0.09437537 0.033826336 -0.102153435 -0.033109993 -0.016135171
-0.053276718 0.08863561 -0.12119402 -0.028617173 -0.079388976 -0.11216988 0.104325354 0.09500931
-0.050218835 0.10539788 0.04442872 -0.012356237 -0.050678685 -0.0928604 -0.06801513 -0.04452467
0.12022829 -0.042424873 -0.09794718 -0.11015305 0.028164372 0.1012018 0.04341173 -0.012652218
0.021938413 -0.0038962066 0.03523852 -0.02582471 -0.08513993 -0.08685106 -0.12374158 -0.009327486
-0.07563925 -0.104594246 -0.07507768 0.055423126 -0.07063332 -0.091299236 0.0458865 0.034709126
-0.11486104 0.11888121 0.030018628 0.06908733 0.032544687 0.05206196 0.11355634 0.005058795
0.0022583753 -0.00298661 -0.021502018 -0.112129465 0.088338435 0.09898335 -0.031396687 -0.0501125
-0.036289364 0.0668817 -0.11368933 -0.12037726 0.1138051 -0.124258235 -0.08182117 -0.098745346
-0.0956424 -0.1002962 -0.092739955 0.066280514 -0.021682128 -0.004962936 -0.05590093 -0.033505872
-0.12339276 0.11354467 -0.0058130324 -0.095645264 0.02356124 0.021771982 0.055488557 0.024577022
0.006338373 0.102554545 -0.052869618 0.0076975226 -0.014048085 -0.0062535256 0.026765749 0.009293646
-0.06436725 -0.008224025 -0.0809145 0.1159676 0.09982215 0.07865006 0.10144985 0.04583393
-0.03196636 0.10784754 0.09933515 0.0051844865 -0.11296578 -0.10077727 -0.08552194 -0.07248865
0.08340567 -0.089292675 -0.08726524 -0.03505911 -0.09649652 -0.005147159 -0.079668105 0.03199981
-0.09676774 0.09250113 -0.07519345 -0.016241819 -0.0931955 0.08201438 -0.11716662 0.058332235
0.08161968 -0.014295772 0.052984715 -0.00023522973 0.11414257 -0.119002596 -0.07585904 0.016495138
0.03947254 -0.003580839 0.13367194 0.096705504 0.058158096 0.0019983617 -0.10372117 0.007463213
-0.07123023 0.0013955176 0.058138665 -0.093100496 0.041655507 -0.012828768 -0.11279419 0.004802672
-0.02959905 -0.026739258 -0.085970394 -0.078801535 0.04595264 0.1076022 0.11366935 0.0005858806
-0.09749195 0.012780497 0.104426436 -0.0053631715 0.10996671 0.020989792 0.088814795 0.116730735
-0.07939818 -0.09045695 0.08967303 -0.004759704 -0.002403853 -0.052070126 0.093441956 -0.07790911
-0.016802497 -0.062014632 -0.008201126 -0.05025749 0.03197934 -0.100888684 0.11929616 0.09934187
-0.11390795 -0.00870723 -0.0024255996 -0.08013658 0.0639174 0.0405003 0.08782744 0.024664968
0.060595203 0.0148037905 0.09566795 0.04692677 -0.08318791 0.09583504 -0.061725006 -0.10713373

fc4.bias f4 [32]
00000000: 86be bf3d 56f3 a93d d8f7 063d 4302 c43c
00000010: 6352 e63d 338a 7a3d 6c12 823d 1ee5 9b3d
00000020: 60dc 81bd dcb6 22bd 8815 123d 0073 633b
00000030: 1987 343c 083c e13d 221b e13c b87b 503d
00000040: 3470 bb3d e5a5 103e e282 fa3c 5e1b 93bd
00000050: e0be 353d e1b3 a6bd 636e ac3d 41c6 a93c
00000060: aaca 3dbd 1563 103e c4c0 9f3d a66f 613d
00000070: e179 dabd d8f8 7c3d f08e e33c 4e60 c3bc
0.09362511 0.08298366 0.032951206 0.02392686 0.11246183 0.061166953 0.0635117 0.0761206
-0.06340861 -0.03972517 0.035665065 0.0034705997 0.011018538 0.10997778 0.027478758 0.050899237
0.091522604 0.14125784 0.030579988 -0.07182954 0.044371486 -0.08139778 0.08419492 0.020724418
-0.046335854 0.14100297 0.07800439 0.055038117 -0.10667778 0.061760753 0.027778119 -0.023849633

fc5.weight f4 [1, 32]
00000000: 1eaa efbd a7eb 333e 0dbb 0cbe e854 d03d
00000010: b227 a63d 481d bc3d bc42 04be 0832 bd3d
00000020: fca6 ffbd 9603 e4bd b601 8fbd 1a1c c7bd
00000030: ce1c 3a3e e430 ed3d 9428 283e 649e 503d
00000040: 8722 8dbd 7039 2d3d b461 fdbd be55 60bc
00000050: 3a04 bc3c 8f5b 853d b887 b93d 4f6c 1abe
00000060: 7ea7 663d d836 383e d778 32bd 68ee 5f3d
00000070: d32a 67bd 1308 0abe 3f81 c63c ad93 88bd
-0.11702369 0.17570363 -0.13743229 0.101724446 0.0811304 0.091852725 -0.12916082 0.09238058
-0.124830216 -0.111334965 -0.06982748 -0.09722157 0.1817505 0.11581591 0.1642173 0.050932303
-0.06891351 0.042291105 -0.12372151 -0.0136923175 0.022951234 0.06511604 0.090590894 -0.15080379
0.056312077 0.17989671 -0.043572273 0.05467072 -0.056437325 -0.13479643 0.024231551 -0.06668792
